…
   for input, target in test_loader:\n        input = input.to(device)\n        target = target.to(device)\n    \n        outputs = best_model(input)\n        val_correct += (outputs.argmax(1) == target.argmax(1)).sum().item()\n    print(f\"val_acc: {val_correct / len(test_loader.dataset)}\")\n\n\nplot_confusion_matrix(best_model, test_loader, class_names=[\"WALKING\", \"WALKING_UPSTAIRS\", \"WALKING_DOWNSTAIRS\", \"SITTING\", \"STANDING\", \"LAYING\"])\n\n\n\nEnsemble of Models\n\nbest_model, model\n\n(AdaptiveRNN(\n   (lstm): LSTM(9, 256, batch_first=True, bidirectional=True)\n   (batch_norm): BatchNorm1d(512, eps=1e-05, momentum=0.1, affine=True, track_running_stats=True)\n   (batch_norm1): BatchNorm1d(128, eps=1e-05, momentum=0.1, affine=True, track_running_stats=True)\n   (attention_dense): Linear(in_features=512, out_features=1, bias=True)\n   (fc1): Linear(in_features=512, out_features=128, bias=True)\n   (fc2): Linear(in_features=128, out_features=64, bias=True)\n   (fc3): Linear(in_features=64, out_features=6, bias=True)\n   (dropout): Dropout(p=0.5, inplace=False)\n ),\n TCNWithCBAM(\n   (tcn_blocks): Sequential(\n     (0): TCNBlock(\n       (conv1): Conv1d(9, 64, kernel_size=(3,), stride=(1,), padding=same)\n       (batch_norm): BatchNorm1d(64, eps=1e-05, momentum=0.1, affine=True, track_running_stats=True)\n       (shortcut): Conv1d(9, 64, kernel_size=(1,), stride=(1,))\n     )\n     (1): TCNBlock(\n       (conv1): Conv1d(64, 128, kernel_size=(3,), stride=(1,), padding=same, dilation=(2,))\n       (batch_norm): BatchNorm1d(128, eps=1e-05, momentum=0.1, affine=True, track_running_stats=True)\n       (shortcut): Conv1d(64, 128, kernel_size=(1,), stride=(1,))\n     )\n     (2): TCNBlock(\n       (conv1): Conv1d(128, 256, kernel_size=(3,), stride=(1,), padding=same, dilation=(4,))\n       (batch_norm): BatchNorm1d(256, eps=1e-05, momentum=0.1, affine=True, track_running_stats=True)\n       (shortcut): Conv1d(128, 256, kernel_size=(1,), stride=(1,))\n     )\n     (3): TCNBlock(\n       (conv1): Conv1d(256, 256, kernel_size=(3,), stride=(1,), padding=same, dilation=(8,))\n       (batch_norm): BatchNorm1d(256, eps=1e-05, momentum=0.1, affine=True, track_running_stats=True)\n     )\n   )\n   (cbam_block): CBAMBlock(\n     (channel_attention): ChannelAttention(\n       (avg_pool): AdaptiveAvgPool1d(output_size=1)\n       (max_pool): AdaptiveMaxPool1d(output_size=1)\n       (fc1): Conv1d(256, 32, kernel_size=(1,), stride=(1,))\n       (fc2): Conv1d(32, 256, kernel_size=(1,), stride=(1,))\n     )\n     (spatial_attention): SpatialAttention(\n       (conv): Conv1d(2, 1, kernel_size=(7,), stride=(1,), padding=(3,))\n       (sigmoid): Sigmoid()\n     )\n   )\n   (global_avg_pool): AdaptiveAvgPool1d(output_size=1)\n   (fc1): Linear(in_features=256, out_features=128, bias=True)\n   (fc2): Linear(in_features=128, out_features=64, bias=True)\n   (fc3): Linear(in_features=64, out_features=6, bias=True)\n   (dropout): Dropout(p=0.5, inplace=False)\n ))\n\n\n\ndef calculate_ensemble_accuracy(models, test_loader, num_classes, device='cuda'):\n    correct = 0\n    total = 0\n\n    models = [model.to(device).eval() for model in models]  # Ensure all models are in eval mode\n\n    with torch.no_grad():\n        for inputs, targets in test_loader:\n           
…
